notebook/best_model.pth (torch, 641275 bytes, 10 tensors)

lstm1.weight_ih_l0 f4 [400, 4]
0	0x3d82d2f1	0.0638789
1	0x3da58f63	0.080839895
2	0xbb818e61	-0.0039537405
3	0x3dc6c5c4	0.097056895
4	0xbbe1de20	-0.0068929344
5	0xbe2e7baa	-0.17039362
6	0x3d5e0d73	0.054212045
7	0x3e262e7e	0.16228673
8	0x3cda0ccd	0.026617432
9	0x3d01d89b	0.03170071
10	0xbcda6ac4	-0.026662238
11	0x3ccdb7e4	0.0251121
12	0xbe0257ab	-0.12728755
13	0x3da3f71b	0.08006116
14	0xbd82a060	-0.06378245
15	0x3e4dc38d	0.20094128
16	0xbd345569	-0.044026766
17	0xbde0c4bb	-0.10975023
18	0x3e060b9c	0.13090366
19	0x3d0606b9	0.032721255
20	0xbd018239	-0.03161833
21	0xbe3e475d	-0.1858191
22	0x3d76c918	0.06025037
23	0x3c364c63	0.01112661
24	0x3cded5a7	0.027201487
25	0xbe166b3c	-0.14689344
26	0x3d4ca56f	0.049962457
27	0x3de26f8f	0.11056434
28	0x3e2cfc39	0.1689309
29	0x3e2acc93	0.16679601
30	0x3df525d1	0.119701035
31	0x3d3be545	0.045872945
32	0x3e26c479	0.16285886
33	0xbe13bb40	-0.14426899
34	0x3e46752a	0.19380632
35	0x3d0fcb39	0.035105918
36	0x3e2d64a8	0.16932929
37	0xbdb51e0f	-0.08843624
38	0x3c4b8623	0.012422117
39	0xbdc20dab	-0.09475263
40	0x3dbef3fb	0.09323879
41	0x3e077ed1	0.1323197
42	0x3d98a6ed	0.074537136
43	0x3dd2bd83	0.10290053
44	0x3e0743b5	0.13209422
45	0xbe1ee254	-0.15516025
46	0x3e5d7368	0.21626055
47	0xbda4a035	-0.080383696
48	0x3dd4c485	0.103890456
49	0xbaa77bad	-0.0012777947
50	0x3d9d3b6a	0.07677348
51	0x3d89c899	0.06727714
52	0xbd924e6b	-0.07143863
53	0xbebab93e	-0.36469454
54	0x3de4c830	0.11170995
55	0xbcd4cf5d	-0.025977785
56	0xbdd746fb	-0.10511585
57	0x3ce08408	0.027406707
58	0xbd1b39fd	-0.0378971
59	0x3c9373f3	0.017999625
60	0xbc9c9170	-0.019112319
61	0x3d9341c1	0.07190276
62	0xbd90f1d8	-0.07077378
63	0x3d9de8b8	0.07710403
64	0xbcd1f0f7	-0.025627596
65	0x3de3a90f	0.1111623
66	0x3d96aee1	0.07357574
67	0x3da56fa3	0.08077934
68	0xbd9e1b87	-0.07720094
69	0x3e3df094	0.18548805
70	0xbd5926f5	-0.053015668
71	0x3e511cf7	0.20421205
72	0xba060af5	-0.0005113327
73	0xbd72904b	-0.05921964
74	0x3d49bd66	0.04925289
75	0xbd05d4bf	-0.032673594
76	0x3cc4ab25	0.02400739
77	0xbcbc14e3	-0.022959178
78	0xbd2b1e2d	-0.041776825
79	0xbdccb472	-0.09995355
80	0xbca8ed10	-0.020620853
81	0x3dab46eb	0.08363136
82	0x3d193623	0.037405144
83	0x3dd08b53	0.10182824
84	0x3e4edd22	0.20201543
85	0x3e8fd72c	0.2809385
86	0x3d5af8b4	0.053459838
87	0xbd439b62	-0.047755606
88	0x3e07cb74	0.13261205
89	0x3ac179ac	0.0014760992
90	0x3d604db3	0.0547616
91	0x3e538d64	0.20659405
92	0x3d8f1120	0.06985688
93	0xbdcf48ac	-0.10121283
94	0xbd06b73b	-0.032889586
95	0x3e80178f	0.25017974
96	0x3dcdf9bc	0.10057399
97	0xbde3a231	-0.1111492
98	0xbdf643db	-0.12024661
99	0xbe03f882	-0.12887767
100	0x3d33320c	0.0437489
101	0xb903663d	-0.0001253122
102	0xbd28911b	-0.04115401
103	0x3e22cb0f	0.15897773
104	0xbd93f28c	-0.072239965
105	0xbd67a1b6	-0.056550704
106	0x3d396075	0.045258004
107	0xbddb10d3	-0.10696568
108	0x3dc68544	0.09693387
109	0x3e5a11bd	0.21295829
110	0x3e33931e	0.1753659
111	0x3cb5b569	0.02218123
112	0x3e035dbe	0.12828729
113	0xbd4543cc	-0.04816036
114	0x3cc5e54f	0.024157194
115	0x3e0a056a	0.13478628
116	0xbc9e8e93	-0.019355094
117	0x3c012c25	0.00788406
118	0xbc03d34b	-0.008045982
119	0x3df37687	0.11887842
120	0x3d272d4b	0.04081468
121	0xbe461d68	-0.19347155
122	0x3e3bf28f	0.18354248
123	0x3d640e27	0.05567756
124	0x3e30ff71	0.17284943
125	0x3dcc0568	0.09961969
126	0xbd03a57b	-0.032140236
127	0xbd2c7cf9	-0.04211137
128	0x3aea067e	0.0017854718
129	0x3dfa4ac4	0.12221292
130	0xbdbde512	-0.09272207
131	0x3d0bed46	0.03416183
132	0x3e18b91f	0.14914368
133	0x3e438d70	0.19096923
134	0x3e28d14b	0.16486089
135	0xbc04e13b	-0.00811034
136	0x3da74740	0.08167887
137	0x3d2abba2	0.041682847
138	0x3dbfa581	0.09357739
139	0x3cc744fa	0.024324883
140	0x3daa8cab	0.083276115
141	0x3d74046d	0.059574533
142	0x3bb01d83	0.005374612
143	0x3d915007	0.07095342
144	0x3d242d13	0.04008205
145	0x3d8988fd	0.067155816
146	0x3cb20c7e	0.021734472
147	0x3e4408a8	0.19143927
148	0x3e83c540	0.25736427
149	0x3d04d197	0.032426443
150	0x3e0f065e	0.13967273
151	0xbdb2a9b5	-0.08723775
152	0xbd8449d1	-0.06459392
153	0xbe81a38e	-0.25320095
154	0x3cbfdaf2	0.023419831
155	0x3de75eee	0.11297403
156	0x3d91099e	0.070819125
157	0x3d457934	0.04821129
158	0x3e5a05af	0.2129123
159	0x3df0294a	0.11726625
160	0x3cd94ef2	0.026526902
161	0x3e0b957a	0.1363124
162	0x3db63775	0.08897296
163	0x3e44bf33	0.19213562
164	0x3e21ca9c	0.15799946
165	0xbc5c3b7e	-0.013441918
166	0x3d3d91d1	0.04628164
167	0xbd75f26e	-0.060045652
168	0xbdfe4978	-0.12416357
169	0xbcc077fd	-0.023494715
170	0xbd170fcc	-0.0368803
171	0x3dc219f9	0.0947761
172	0xbca49374	-0.020089842
173	0xbd971518	-0.0737707
174	0x3da5b735	0.080915846
175	0x3bc5a804	0.006031992
176	0x3e282883	0.16421704
177	0xbcadbcc3	-0.021208173
178	0x3d2911ab	0.041276615
179	0x3d60a68a	0.054846324
180	0xbcb84380	-0.022493124
181	0x3dca7fa9	0.098876305
182	0x3c4efc60	0.012633413
183	0x3dfb11ee	0.12259279
184	0x3c35e8f8	0.011102907
185	0xbe84177e	-0.25799173
186	0x3d84f8b3	0.06492748
187	0xbd17a34c	-0.037020966
188	0x3d37cd11	0.0448733
189	0x3c66ac07	0.0140791
190	0x3e0d8f8f	0.13824295
191	0x3cdfd59c	0.027323537
192	0x3e3bb014	0.18328887
193	0x3cf81520	0.03028351
194	0x3dfa6490	0.12226212
195	0xbd22078c	-0.03955798
196	0x3d477603	0.04869653
197	0xbd31d0cd	-0.04341202
198	0x3d95694b	0.07295474
199	0x3e2405e5	0.16017874
200	0x3d84e968	0.06489831
201	0x3d5dc696	0.054144464
202	0x3df20072	0.11816491
203	0x3ba633bb	0.0050720847
204	0xbd8288a1	-0.06373716
205	0x3d92240e	0.07135783
206	0x3d72c09c	0.059265718
207	0x3d950121	0.07275606
208	0x3dfbcc6c	0.1229485
209	0xbb8d710a	-0.004316454
210	0x3de4225b	0.11139365
211	0x3e6aad53	0.2291768
212	0x3d477842	0.04869867
213	0xbd7b5067	-0.061355975
214	0x3e06260a	0.13100448
215	0x3cb9912c	0.022652231
216	0x3df2d583	0.118571304
217	0x3deea932	0.11653365
218	0x3bbd42e2	0.0057757953
219	0x3c4d6d6a	0.012538293
220	0xbd2afcc5	-0.041744966
221	0x3dfac39e	0.12244342
222	0x3dd2d543	0.10294583
223	0x3e54d0c7	0.20782767
224	0x3e043794	0.12911826
225	0x3db7611d	0.0895407
226	0x3e0b132b	0.13581531
227	0x3e4a3bef	0.19749425
228	0x3d9b8e63	0.075955175
229	0xbd9fa7cb	-0.07795676
230	0x3d50db6b	0.050990503
231	0x3dc22a33	0.09480705
232	0xbd3c49ad	-0.0459687
233	0x3dc25232	0.09488334
234	0x3c6b73b3	0.014370847
235	0x3e5a1ed4	0.21300822
236	0x3e106c14	0.14103729
237	0x3e307e06	0.17235574
238	0x3e44d6b1	0.19222523
239	0x3e136573	0.14394169
240	0x3e218857	0.15774666
241	0x3daaa9eb	0.083331905
242	0x3d2599f6	0.04043003
243	0x3d568232	0.052370258
244	0xbdd1c1a4	-0.10242012
245	0xbd5f0537	-0.054448333
246	0x3db7bb60	0.08971286
247	0x3d630545	0.055424947
248	0x3d6b9095	0.05751093
249	0x3e0031da	0.12519017
250	0x3dac5428	0.08414489
251	0xbc8de1c4	-0.017319568
252	0xbd7a415d	-0.06109749
253	0xbd09a8d1	-0.03360826
254	0xbabaceae	-0.0014252269
255	0x3d9989cd	0.074969865

lstm1.weight_hh_l0 f4 [400, 100]
0	0xbca8e652	-0.020617638
1	0xbc217f0c	-0.0098569505
2	0xbb5426a2	-0.003237166
3	0x3cc7a0da	0.024368692
4	0xbd713a91	-0.058893744
5	0xbbb320fa	-0.0054665776
6	0x3bc0ee84	0.0058878083
7	0xbba4bffe	-0.00502777
8	0x3d259c8e	0.040432505
9	0x3d1efac1	0.038813356
10	0xbd6f359f	-0.058400746
11	0x3d3f170d	0.046652842
12	0x3d81f26b	0.06345066
13	0x3c19612f	0.009361549
14	0xbc5ac6b7	-0.013353041
15	0x3b1cb3e0	0.0023910925
16	0x3d8b80f7	0.068117075
17	0xbd23bca0	-0.03997481
18	0xbb8db7e0	-0.004324898
19	0xba5f152a	-0.00085099286
20	0x3d526801	0.051368717
21	0x3b520d96	0.0032051555
22	0x3d9268ad	0.071488716
23	0x3dc519b4	0.09624043
24	0xbe391c7f	-0.18077277
25	0x3d88eade	0.06685422
26	0xbcc5d20e	-0.024148013
27	0x3dc30458	0.09522313
28	0xbc45102e	-0.012027783
29	0xbd38c784	-0.045112148
30	0x3c0623f3	0.008187282
31	0x3d8b43d7	0.06800049
32	0xbd1724e6	-0.036900423
33	0x3d3915bf	0.045186754
34	0xbcee061c	-0.029055648
35	0x3db8c027	0.09021025
36	0x3d874600	0.06605148
37	0xbe17e444	-0.1483317
38	0x3d78b467	0.06071892
39	0x3da00033	0.07812538
40	0x3c48a4ea	0.01224635
41	0x3cd96975	0.026539544
42	0x3b9c6d79	0.0047737923
43	0x3b981d53	0.0046421676
44	0xbdaf43e3	-0.0855787
45	0x3c843e36	0.016142946
46	0x3db2dc94	0.08733478
47	0xbd878d75	-0.06618778
48	0xbe008d03	-0.12553792
49	0xbdab8add	-0.083760954
50	0x3d38570f	0.0450049
51	0x3d9b4f5d	0.07583497
52	0xbd9e3c1e	-0.0772631
53	0x3e0493eb	0.12947051
54	0xbcde1bae	-0.027112808
55	0x3d1507c7	0.03638437
56	0xbc5b595f	-0.013388007
57	0x3d80c4c1	0.06287528
58	0x3d66e71a	0.05637274
59	0xbd0b31b9	-0.033982966
60	0x39f39517	0.00046459652
61	0xbca17e0c	-0.019713424
62	0xbc93ba3f	-0.018033145
63	0x3d460392	0.04834325
64	0x3d57bd0f	0.052670535
65	0x3dba03ca	0.09082754
66	0xbdcf82fc	-0.10132405
67	0xbd3efe1a	-0.04662905
68	0x3c4b6d49	0.012416192
69	0x3d9dd3c8	0.0770641
70	0x3b947d38	0.004531529
71	0x3d7247fc	0.05915068
72	0xbd2ca054	-0.04214509
73	0xbcc62655	-0.0241882
74	0xbdeb3223	-0.11484172
75	0x3d3eeb0f	0.046610888
76	0xbd4906fe	-0.049078934
77	0xbd3258a8	-0.04354158
78	0x3da79115	0.08181969
79	0x3d5446f1	0.051825467
80	0xbd6e6adc	-0.058207378
81	0x3dfb9a16	0.12285249
82	0xbc16e99f	-0.009210973
83	0x3dbbe3c2	0.09174301
84	0xbe1c07e1	-0.1523738
85	0xbafe4fa4	-0.0019402397
86	0xbc34dc5c	-0.011038866
87	0xbd20ef8e	-0.039290957
88	0xbd809ef4	-0.06280318
89	0xbd9ebfdf	-0.0775144
90	0x3cecf5c1	0.028925778
91	0xbcbe3fbe	-0.023223754
92	0xbc8b34e9	-0.016993003
93	0x3d134af1	0.03596014
94	0xbcb0fb0e	-0.021604087
95	0xbd0db7db	-0.034599166
96	0x3df7c675	0.120983995
97	0x3da7cea8	0.081937134
98	0xbc41320f	-0.01179172
99	0x3bbaae9b	0.005697084
100	0x3dc90a7c	0.09816453
101	0xbbf0a309	-0.007343654
102	0xbd1c5a6e	-0.038172178
103	0xbaeca007	-0.0018053063
104	0x3ce71caa	0.02821191
105	0xbcf124ab	-0.02943643
106	0x3cffcf66	0.031226825
107	0x3e0c3d9a	0.13695374
108	0xbd716cc8	-0.058941633
109	0x3cc7834f	0.024354605
110	0x3c691cdb	0.014228071
111	0xbba52d01	-0.0050407653
112	0x3d910f9d	0.07083056
113	0x3bc078b8	0.005873766
114	0x3d04aeaf	0.032393154
115	0xbd50dd31	-0.050992195
116	0x3d96f944	0.073717624
117	0xbd7fb2a7	-0.062426236
118	0xbd8a5255	-0.06753985
119	0xbd6b93b1	-0.057513896
120	0x3c515820	0.012777358
121	0x3de40b30	0.11134946
122	0x3c835363	0.016030973
123	0x3d468854	0.048469856
124	0xbde1cfb5	-0.11025945
125	0x3da062f3	0.07831373
126	0xbcd32275	-0.025773266
127	0xbd01846e	-0.031620435
128	0x3c85ab9f	0.016317187
129	0xbccb1346	-0.024789464
130	0x3d78f126	0.060776852
131	0xbd02a1eb	-0.0318927
132	0xbd335120	-0.04377854
133	0x3cdf4cb7	0.02725826
134	0x3cab55ef	0.020915
135	0x3d10d338	0.035357684
136	0xbc81e029	-0.015853958
137	0x3d14160a	0.03615383
138	0x3d41e865	0.04734077
139	0xbb7f8c6f	-0.0038993617
140	0xbd187218	-0.037218183
141	0x3d6d1eb7	0.05789062
142	0x3d43a04c	0.047760293
143	0xbc89405d	-0.016754324
144	0x3ca01b0b	0.019544145
145	0x3d097c72	0.033565946
146	0x3caf6bd7	0.021413727
147	0x3c89e4b3	0.016832685
148	0x3d33ecb0	0.043926895
149	0x3c2aaf91	0.010417835
150	0x3cadf1f6	0.02123354
151	0xbcf5db39	-0.03001176
152	0x3d9d423c	0.07678649
153	0x3cacb366	0.021081638
154	0xbd47b526	-0.04875674
155	0x3d58178a	0.052756824
156	0x3d3c368a	0.04595045
157	0xbb3249ea	-0.00272047
158	0xbd15642f	-0.036472496
159	0xbc9a184a	-0.01881041
160	0xbc525985	-0.012838726
161	0x3c85a5c1	0.01631439
162	0x3d5bbfc6	0.053649686
163	0xbd9d2844	-0.07673696
164	0xbd3e78a4	-0.04650177
165	0xbce0cc0e	-0.02744105
166	0xbd08a57d	-0.033360947
167	0x3d43587a	0.0476918
168	0x3d4aa3ca	0.049472608
169	0xbd74011e	-0.059571378
170	0x3be953f2	0.0071206028
171	0x3c5a5abe	0.013327299
172	0xbb34b094	-0.002757107
173	0xbcd3d68c	-0.02585914
174	0xbc50251f	-0.012704163
175	0x3d5034b5	0.050831515
176	0xbce2e2bf	-0.027696012
177	0xbda1f493	-0.07907977
178	0xbc985943	-0.01859725
179	0x3d66bece	0.05633431
180	0xbd49e727	-0.04929271
181	0x3dcb8d99	0.09939117
182	0x3c925481	0.01786256
183	0x3cf4adab	0.029867968
184	0xbd4e43cf	-0.050357636
185	0xbd430be6	-0.04761877
186	0x3d30434e	0.043032937
187	0x3da0ce96	0.07851903
188	0x3da59a0b	0.08086022
189	0x3d63ca6c	0.055612966
190	0x3b2b4941	0.0026136192
191	0xbcf58c4e	-0.029974129
192	0x3d8a5c20	0.06755853
193	0x3db3fc1f	0.08788323
194	0x39ca28cb	0.00038558836
195	0x3db653a9	0.08902676
196	0x3c92807e	0.017883535
197	0x3c2009a9	0.009767928
198	0x3b43741b	0.0029823843
199	0x3d994ad7	0.07484978
200	0xbd8ea230	-0.069645286
201	0xbd516f59	-0.05113158
202	0xbc330f3b	-0.010928924
203	0x3d6b0481	0.057377342
204	0x3de0ead5	0.10982291
205	0x3d49b84c	0.049248025
206	0x3d081ae2	0.033228762
207	0xbcccb6a3	-0.024989432
208	0x3cf330fc	0.029686444
209	0xbd681e4b	-0.056669515
210	0x3d2b9c22	0.041896947
211	0xbd9a1160	-0.07522845
212	0x3d34f5ae	0.04417961
213	0xbc9cd051	-0.019142302
214	0xbd31a337	-0.043368544
215	0x3e2045ff	0.15651701
216	0xbd938b3a	-0.0720429
217	0xbdb6edcd	-0.08932076
218	0xbe03bf84	-0.12866026
219	0xbda89155	-0.08230845
220	0x3de338d0	0.110948205
221	0xbdc42803	-0.09577944
222	0x3de9d5e0	0.114177465
223	0x3d8e4cca	0.0694824
224	0xbd6db75a	-0.058036186
225	0xbd9a4083	-0.07531836
226	0xbd0d3aab	-0.03447978
227	0xbcbd96b3	-0.023143148
228	0x3ca22c2b	0.019796452
229	0xbda989f7	-0.08278268
230	0x3c45b55e	0.012067167
231	0xbd2523c2	-0.040317304
232	0x3dc4e071	0.09613121
233	0xbe40efe8	-0.18841517
234	0xbd8981c4	-0.06714204
235	0x3d99b5df	0.07505392
236	0x3d1579c9	0.036493097
237	0xbdbf4d5a	-0.093409255
238	0x3d11eaef	0.03562444
239	0xbe1d8c20	-0.15385485
240	0x3c8a67ab	0.016895136
241	0xbdd3fbb8	-0.10350746
242	0xbdf5aa32	-0.11995353
243	0x3df439ff	0.119251244
244	0xbcc41044	-0.023933537
245	0x3c056ea7	0.008144057
246	0xbd6da2e7	-0.058016684
247	0x3da447aa	0.08021481
248	0xbde3fb17	-0.11131876
249	0xbd6e691f	-0.05820572
250	0xbc1cae3f	-0.009563028
251	0x3e250fb4	0.16119272
252	0xbcbf4a82	-0.023350958
253	0x3e13bf8d	0.1442854
254	0xbd18901f	-0.03724682
255	0xbe28f236	-0.16498646

lstm1.bias_ih_l0 f4 [400]
0	0xbdfabf03	-0.12243464
1	0xbdb40682	-0.08790304
2	0xbd47ae74	-0.048750356
3	0xbdb2a061	-0.08721996
4	0xbe688c03	-0.2270966
5	0xbe2f341b	-0.1710972
6	0xbe462835	-0.19351275
7	0x3e95e396	0.29275197
8	0xbdee6106	-0.116395995
9	0xbd8ff096	-0.0702831
10	0xbd1042e7	-0.035220053
11	0x3d87ee85	0.06637291
12	0xbe1cecaa	-0.15324655
13	0xbe4efc2c	-0.20213383
14	0x3da53fd8	0.08068818
15	0xbe28f9ed	-0.16501589
16	0xbe26dbfb	-0.16294853
17	0x3c4ed7f8	0.012624733
18	0xbd818c8b	-0.063256346
19	0xbd2cf59c	-0.04222642
20	0xbad8b4ad	-0.0016533338
21	0x3e11daf7	0.14243685
22	0xbbfa2d79	-0.0076348153
23	0x3b4b9cc8	0.003106879
24	0xbe0626d7	-0.13100754
25	0xbd14a908	-0.036294013
26	0xbe053827	-0.13009702
27	0xbd80b9d8	-0.06285447
28	0xbe08fc6a	-0.13377538
29	0xbe00fa14	-0.12595397
30	0xbd721f6a	-0.05911199
31	0x3e3e64fa	0.18593207
32	0x3df7bc97	0.120965175
33	0x3c84534c	0.016153
34	0xbd004ad2	-0.031321354
35	0xbd3913c4	-0.045184866
36	0x3d0ca9b6	0.034341536
37	0x3d262c3a	0.04056952
38	0xbe01d6e9	-0.12679638
39	0x3e151830	0.14560008
40	0xbd413bf1	-0.047176305
41	0xbc856417	-0.016283078
42	0xbd5a281b	-0.053260904
43	0xbc8495fb	-0.016184798
44	0xbe1e6908	-0.15469754
45	0xbd89326d	-0.06699071
46	0xbddccc1e	-0.1078112
47	0xbda672c4	-0.081273586
48	0x3d042718	0.032263845
49	0xbdddc803	-0.10829165
50	0x3c7fc09c	0.0156098865
51	0xbd0e0064	-0.03466834
52	0x3aa141e5	0.0012302963
53	0xbdc0008e	-0.09375106
54	0xbceea2b8	-0.029130325
55	0x3deec873	0.116593264
56	0xbd275075	-0.040848214
57	0xbc5bffe2	-0.013427706
58	0xbdce5aab	-0.10075887
59	0xbd1248cb	-0.035713952
60	0xbc83a9e0	-0.016072214
61	0xbd525d05	-0.05135824
62	0x3c852969	0.016255097
63	0xbe0706eb	-0.13186233
64	0xbd681dd4	-0.05666907
65	0xbb43dc2e	-0.0029885876
66	0xbe0d0b50	-0.13773847
67	0xbce5dacb	-0.02805843
68	0xbde833e6	-0.11338024
69	0x3d39b6ea	0.045340456
70	0xbe2d6221	-0.16931964
71	0xbdb98191	-0.09057916
72	0xbe597117	-0.21234547
73	0xbdf4316b	-0.11923488
74	0xbddf7023	-0.1091006
75	0xbddc6b33	-0.10762634
76	0x3a303bca	0.00067227765
77	0xbe31ea7f	-0.1737461
78	0xbc723a5b	-0.014784421
79	0xbc981beb	-0.018568
80	0xbe47eb53	-0.19523363
81	0xbd8bb6b3	-0.068219565
82	0xbc6f9ab8	-0.01462429
83	0xbe7a6bb4	-0.24455148
84	0x3d360253	0.04443581
85	0xbdbde3c4	-0.092719585
86	0x3d56c798	0.05243644
87	0xbd40107e	-0.04689073
88	0x3cbb7158	0.022881195
89	0x3dd55139	0.104158826
90	0xbe4774c1	-0.19478132
91	0xbe347ac9	-0.17624964
92	0xbda2ea09	-0.07954795
93	0x3d9ef4fc	0.07761571
94	0x3e27c6bd	0.16384406
95	0x3d5f1c66	0.054470442
96	0xbe671a74	-0.22568685
97	0xbda686a2	-0.08131148
98	0xbddab670	-0.106793284
99	0xbe028bce	-0.12748644
100	0xbdc08197	-0.09399717
101	0xbd1881dd	-0.037233222
102	0xbd6e22a0	-0.05813849
103	0x3e0c53f3	0.13703899
104	0xbdf3b156	-0.118990585
105	0xbda344e7	-0.079721265
106	0xbe199cdf	-0.15001248
107	0xbd03fb3e	-0.032222025
108	0xbe09c077	-0.13452326
109	0xbd75be10	-0.05999571
110	0x3cba4b6d	0.022741044
111	0xbe0babe5	-0.13639791
112	0xbe534683	-0.20632367
113	0xbd7e57bf	-0.0620954
114	0x3c062a27	0.008188761
115	0xbe1adf76	-0.15124306
116	0xbe0c3e6b	-0.13695686
117	0xbded32ad	-0.11581931
118	0xbdc2c137	-0.09509509
119	0x3c300b3d	0.010744867
120	0xbd920622	-0.07130076
121	0xbe059916	-0.13046679
122	0xbde746eb	-0.112928234
123	0xbdb35e2c	-0.08758196
124	0x3e32d2b5	0.17463191
125	0xbdafe7af	-0.08589112
126	0xbdd00f24	-0.10159138
127	0xbdd862b0	-0.10565698
128	0xbd5a9594	-0.053365305
129	0xbdd32fd4	-0.10311857
130	0xbe08caf7	-0.13358675
131	0xbdb5ab67	-0.08870583
132	0x3d8348cd	0.0641037
133	0x3c572fb5	0.013133933
134	0x3cb489d9	0.022038387
135	0xbcdf87e5	-0.02728648
136	0xbd5a98bb	-0.05336831
137	0xbdbc2e5c	-0.0918853
138	0x3cf5c0e5	0.029999206
139	0xbd74b5d2	-0.05974371
140	0xbdb70cf0	-0.089380145
141	0xbcac88ab	-0.021061262
142	0x3d2a4614	0.041570738
143	0xbcbdca9f	-0.023167906
144	0xbe1d08e7	-0.15335427
145	0xbd80575f	-0.06266665
146	0xbd781ed5	-0.06057628
147	0x3c6df3d5	0.014523466
148	0xbd444a13	-0.047922205
149	0x3c639104	0.013889555
150	0x3d72132e	0.059100322
151	0x3bbb2a01	0.0057117944
152	0xbdb17b30	-0.08666074
153	0xbda6edb2	-0.081508055
154	0xbdb0b648	-0.086285174
155	0xbdd67b7b	-0.10472771
156	0xbe358012	-0.17724636
157	0xbb2216b8	-0.002473278
158	0xbdd71cbd	-0.10503528
159	0x3ac66781	0.0015137048
160	0xbd6e4753	-0.05817349
161	0xbd816826	-0.06318693
162	0xbcce3aa4	-0.025174446
163	0xbdfb63fe	-0.12274931
164	0x3cc9a204	0.024613388
165	0xbca692d9	-0.020333694
166	0xbcb23369	-0.02175303
167	0xbdab0e3b	-0.083523236
168	0xbd94eab1	-0.07271326
169	0xbdb61e0b	-0.08892449
170	0xbdbecd73	-0.0931653
171	0xbdf2f023	-0.11862209
172	0x3d26d3e1	0.040729407
173	0xbd508047	-0.050903585
174	0x3dad6409	0.08466346
175	0x3ce759a6	0.02824099
176	0x3d2c40bd	0.042053927
177	0xbe2248c8	-0.15848076
178	0xbca84243	-0.020539409
179	0xbdc26884	-0.09492591
180	0xbdef35a0	-0.1168015
181	0xbd5a4362	-0.053286918
182	0xbd10077b	-0.035163384
183	0xbe484cb5	-0.19560511
184	0x3ddce423	0.10785701
185	0xbe19b2ba	-0.15009585
186	0xbc529f24	-0.012855325
187	0xbe1d13f7	-0.15339647
188	0xbdc7933a	-0.09744878
189	0x3d10e500	0.03537464
190	0xbe00f00a	-0.12591568
191	0xbddd1c40	-0.10796404
192	0xbdcfb232	-0.1014141
193	0xbda5078c	-0.0805808
194	0x3bf41817	0.007449161
195	0xbe0b33b2	-0.13593939
196	0xbd548bb6	-0.05189105
197	0x3d2f7a65	0.042841334
198	0xbe027a63	-0.12742
199	0xbd973598	-0.07383269
200	0xbd9c848c	-0.07642469
201	0xbc27aef2	-0.010234581
202	0xbcf6466d	-0.030062879
203	0x3caf47f5	0.021396616
204	0x3d9d124c	0.076695055
205	0x3c1cc4ec	0.009568434
206	0xbb38ea3a	-0.0028215782
207	0xbe0b96a7	-0.13631688
208	0x3dba8b64	0.09108618
209	0xbd10f015	-0.03538521
210	0xbd28cd16	-0.04121121
211	0x3d07053c	0.032963976
212	0xbd9fa3c9	-0.077949114
213	0xbcf53df7	-0.029936774
214	0x3ace0a8a	0.0015719694
215	0x3d8ec6e5	0.0697153
216	0xbdcc0111	-0.09961141
217	0xbdc143fb	-0.09436794
218	0xbc065cf3	-0.008200872
219	0x3cd314c0	0.02576673
220	0x3dd3df69	0.103453465
221	0xbdc3f890	-0.09568894
222	0x3d7166d5	0.05893596
223	0xbd351bf6	-0.04421612
224	0xb8b3bc5a	-8.570468e-05
225	0xbc730e3f	-0.0148349395
226	0xba1bfd0a	-0.00059504865
227	0xbd9eae52	-0.07748093
228	0xbd01da20	-0.03170216
229	0x3d381e3e	0.044950716
230	0xb9066dbb	-0.00012820114
231	0xbc7db6fe	-0.015485523
232	0xbc998066	-0.018737983
233	0xbd5731f0	-0.05253786
234	0x3c9a5cb6	0.018843036
235	0xbd03697b	-0.032083016
236	0xbdbe6983	-0.092974685
237	0x3d10018e	0.035157733
238	0x3daa0dd2	0.08303417
239	0xbc2e402e	-0.010635419
240	0xbd94bc9f	-0.07262539
241	0x3cca3537	0.024683578
242	0xbdd159d7	-0.10222214
243	0xb901b7ad	-0.00012370823
244	0x3dbe36e2	0.09287812
245	0x3c8bef78	0.017081961
246	0xbda026db	-0.07819911
247	0x3d7e32e4	0.06206025
248	0x388f448f	6.8315414e-05
249	0xbc9c4e53	-0.019080317
250	0xbd7ef694	-0.062246874
251	0x3d575dcd	0.05257969
252	0x3d1b07dd	0.037849296
253	0x3d31fbb8	0.04345295
254	0xbdbe33f6	-0.092872545
255	0x3c1cb12e	0.009563727

lstm1.bias_hh_l0 f4 [400]
0	0xbd97cb9e	-0.07411884
1	0xbe16269f	-0.1466317
2	0xbd1da632	-0.038488574
3	0xbda6be5e	-0.081417784
4	0xbe81f2b3	-0.25380477
5	0xbdbf88cf	-0.09352266
6	0xbe3e4d9c	-0.18584293
7	0x3e40127a	0.18757048
8	0xbd7ad3f7	-0.0612373
9	0xbd8e1de0	-0.06939292
10	0xbd2e6562	-0.042577155
11	0xbd13ff9b	-0.036132436
12	0xbdd38936	-0.10328905
13	0xbe4d0bda	-0.20024052
14	0x3d891c76	0.066948816
15	0xbd7f0b87	-0.062266853
16	0xbdbab302	-0.09116174
17	0xbdf22651	-0.118237145
18	0x3c867e6c	0.016417705
19	0xbd939d0f	-0.07207691
20	0xbdf5c065	-0.11999587
21	0x3dfd6243	0.123722576
22	0xbcda40f7	-0.026642306
23	0x3c8ab48b	0.016931793
24	0xbd600972	-0.054696508
25	0xbddc29fe	-0.10750197
26	0xbd2e5700	-0.04256344
27	0xbdb2f901	-0.087389
28	0x3b25f368	0.0025322083
29	0xbd998590	-0.07496178
30	0xbe409546	-0.18806943
31	0x3e4a4af9	0.19755162
32	0x3e1634cd	0.1466858
33	0xbded040f	-0.1157304
34	0xbda97a01	-0.082752235
35	0xbd6ea671	-0.0582642
36	0x3d405777	0.046958413
37	0x3e1ffb5b	0.15623228
38	0xbe268378	-0.16261089
39	0x3e012c78	0.1261462
40	0xbe1404c8	-0.14454949
41	0x3cc68547	0.024233473
42	0x3c3ff545	0.011716192
43	0xbda0faac	-0.07860312
44	0xbdaeebbd	-0.08541057
45	0xbd4efc81	-0.050533775
46	0xbe40e498	-0.18837202
47	0xbd5212a2	-0.0512873
48	0x3d3bc3bc	0.045840964
49	0xbd8519e7	-0.06499081
50	0x3dd2cab0	0.10292566
51	0xbcf12960	-0.029438674
52	0x3bedca70	0.0072567984
53	0xbdbb7f41	-0.09155131
54	0xbcf6d312	-0.030129943
55	0x3d0ec352	0.03485424
56	0xbdb17764	-0.0866535
57	0x3d1ab38c	0.037768885
58	0xbdc3bdbf	-0.095576756
59	0xbc675b30	-0.014120862
60	0x3df9a814	0.121902615
61	0xbde01533	-0.109415434
62	0xbd46dc73	-0.04855008
63	0xbda019dc	-0.07817432
64	0xbd809c7e	-0.062798485
65	0xbdc9d9fa	-0.09856029
66	0xbd5b3ef4	-0.053526834
67	0xbd4b9a5e	-0.049707763
68	0xbe4122d8	-0.18860948
69	0xbc557b9d	-0.01302996
70	0xbdb80ffc	-0.08987424
71	0xbd8ea564	-0.069651395
72	0xbdf8c01d	-0.12146018
73	0xbdf1128c	-0.11771116
74	0x3ce13bc0	0.027494311
75	0xbd053c5f	-0.032528277
76	0x3c7e0cbc	0.015505966
77	0xbe33044b	-0.17482106
78	0xbda0985b	-0.078415595
79	0xbd188a22	-0.03724111
80	0xbe2ae7a4	-0.16689926
81	0xbe4b4dc1	-0.1985388
82	0xbdc37999	-0.09544677
83	0xbe2e405e	-0.17016742
84	0x3d8d7372	0.06906785
85	0xbe02abdd	-0.12760873
86	0x39051cd8	0.00012694614
87	0xbe636158	-0.22205102
88	0xbd5a914f	-0.053361233
89	0xbc0c9dc7	-0.008582539
90	0xbdf925a6	-0.12165384
91	0xbe6d47ef	-0.23171972
92	0xbd820e7b	-0.06350418
93	0x3d2bd46b	0.041950624
94	0x3e1eb01e	0.15496871
95	0xbdabc1ea	-0.083865955
96	0xbe179d7d	-0.14806171
97	0xbc06026d	-0.008179289
98	0xbc30b353	-0.010784942
99	0xbde15290	-0.11002076
100	0xbe342e76	-0.17595848
101	0xbe1e49d0	-0.15457845
102	0xbca217a2	-0.01978666
103	0x3d906709	0.070509024
104	0xbe353bdf	-0.1769862
105	0xbe37f4f3	-0.17964534
106	0xbe23375d	-0.15939088
107	0x3d67f9fa	0.05663488
108	0xbd5746a2	-0.052557595
109	0xbe0b2223	-0.13587241
110	0x3d1f0949	0.038827214
111	0xbbd12494	-0.0063825343
112	0xbddb277b	-0.1070089
113	0xbc8e4bdb	-0.017370155
114	0xbdbcd8ca	-0.09221037
115	0xbc85035d	-0.016236955
116	0xbd324932	-0.043526836
117	0xbaa3049b	-0.0012437286
118	0xbdb70bf2	-0.08937825
119	0xbdf1a0ab	-0.11798223
120	0xbdc5ac63	-0.09652021
121	0xbcbb4cee	-0.022863831
122	0x398b08f4	0.00026518817
123	0xbda382ff	-0.0798397
124	0x3e31e8b8	0.17373931
125	0xbe2500ec	-0.16113633
126	0xbd8b2524	-0.067941934
127	0xbe309a1b	-0.17246287
128	0xbe2c3ed3	-0.1682084
129	0xbdeebfe5	-0.11657695
130	0xbe1ed415	-0.1551059
131	0x3cff09a0	0.03113252
132	0x3d23a119	0.039948557
133	0x3cbf6422	0.023363177
134	0xbda6903f	-0.081329815
135	0xbd3fc457	-0.046818104
136	0xbd0318bf	-0.03200602
137	0x3b27dd0e	0.0025613937
138	0xbb827fda	-0.0039825263
139	0x3b84513b	0.0040380037
140	0xbe2c87b0	-0.16848636
141	0x3c349fc8	0.011024423
142	0xbbce7083	-0.0063000335
143	0xbdb8a069	-0.09014971
144	0xbe189681	-0.14901163
145	0xbd0159fe	-0.031579964
146	0xbe20dbf7	-0.1570891
147	0xbc5c3563	-0.013440463
148	0xbd50158c	-0.0508018
149	0xbd055074	-0.03254743
150	0x3c8bc617	0.01706223
151	0xbce07f82	-0.02740455
152	0xbe0e348b	-0.13887231
153	0xbdbf2390	-0.09332955
154	0xbe056fb8	-0.13030899
155	0xbdc674c5	-0.09690241
156	0xbd9537b6	-0.07286017
157	0xbd0c7af9	-0.034296963
158	0xbe2508c8	-0.16116631
159	0xbd219394	-0.039447382
160	0xbc937e3c	-0.01800453
161	0xbdba001f	-0.09082054
162	0xbd856834	-0.06514016
163	0xbdaba701	-0.08381463
164	0x3d12fc5b	0.035885196
165	0xbd6779c1	-0.056512598
166	0x3c8ceea3	0.017203635
167	0xbe2702c8	-0.16309655
168	0xbd9742fb	-0.073858224
169	0xbc60a913	-0.013712185
170	0xbc22d265	-0.009937857
171	0x3c54451e	0.012955932
172	0xbb7331d1	-0.003710855
173	0xbd7bf2c1	-0.061510805
174	0x3ca51304	0.020150669
175	0xbd26d4b3	-0.04073019
176	0xbcf482ee	-0.029847588
177	0xbe3c9a16	-0.18418154
178	0xbe13bbd4	-0.1442712
179	0xbc9ac368	-0.018892005
180	0xbe013a95	-0.12620004
181	0xbd8f3e70	-0.06994331
182	0xbe2a8f67	-0.16656266
183	0xbe5a82cb	-0.21338956
184	0x3c92c0e1	0.017914237
185	0xbd7bd9a3	-0.06148685
186	0xbdb0c447	-0.08631187
187	0xbe1dc2f9	-0.15406407
188	0xbd9b9b1f	-0.075979464
189	0x3d4dd9b5	0.05025645
190	0xbe45b323	-0.19306616
191	0xbc990f54	-0.018684067
192	0xbde73622	-0.11289622
193	0x3d185f11	0.037200037
194	0xbcf68800	-0.030094147
195	0xbdc2857d	-0.09498117
196	0xbd37be1f	-0.044859048
197	0xbe046714	-0.12929946
198	0xbd76e2ec	-0.060275003
199	0xbdc336ea	-0.095319584
200	0xbcff98ea	-0.031200845
201	0xbd1c5727	-0.038169052
202	0xbdb98412	-0.090583935
203	0x3d62fd0f	0.055417117
204	0x3d8fb456	0.07016818
205	0xbc485844	-0.012228075
206	0x3d093425	0.033496995
207	0xbd3a40f3	-0.045472097
208	0xbbe98efb	-0.0071276403
209	0xbdb1d57c	-0.08683297
210	0xbcc2ac1f	-0.023763714
211	0xbde1c145	-0.11023191
212	0x3d85baff	0.06529807
213	0x3d017dee	0.031614237
214	0x3dae694c	0.085161775
215	0x3d48e0c4	0.04904248
216	0xbd4c4728	-0.049872547
217	0xbcd460e2	-0.025925104
218	0x3db86725	0.09004048
219	0xba269513	-0.0006354611
220	0x3b1cd53d	0.002393081
221	0xbd8e711e	-0.06955169
222	0x3d4c75d4	0.049917057
223	0x3de96152	0.113955155
224	0xbc940e63	-0.018073266
225	0xbbb0866b	-0.0053871176
226	0xbd02efa1	-0.03196681
227	0x3b69132a	0.0035564401
228	0xbd4a4968	-0.049386412
229	0xbd69b04b	-0.05705289
230	0x3c815d48	0.01579155
231	0x3d9870d1	0.07443393
232	0x3e0e992a	0.13925615
233	0x3d0d7057	0.034530964
234	0x3dbde035	0.0927128
235	0xbd8be17a	-0.068301156
236	0xbd3e8cdd	-0.046521056
237	0x3d0d77ee	0.034538202
238	0x3d3cabb7	0.046062198
239	0xbd58b2ff	-0.05290508
240	0x3d759aba	0.059962012
241	0xbce7a212	-0.028275523
242	0xbc825632	-0.015910242
243	0xbdb0faa6	-0.086415574
244	0x3c99a61f	0.01875597
245	0x3dcd959a	0.100383
246	0xbdda53c1	-0.10660506
247	0x3d4291bf	0.047502276
248	0xbb8eab24	-0.0043538976
249	0x3d2f66db	0.0428227
250	0xbc91a7dd	-0.017780239
251	0xbdc9f736	-0.09861605
252	0xbdb1c4bc	-0.08680102
253	0xbc1f28f7	-0.009714357
254	0xbda17829	-0.07884247
255	0x3b0720c7	0.0020618902

lstm2.weight_ih_l0 f4 [400, 100]
0	0x3c21ba67	0.009871102
1	0x3c9d1252	0.019173775
2	0x3c19f6d0	0.009397224
3	0xbe1718d3	-0.14755563
4	0xbd9cd982	-0.07658674
5	0x3caeba3b	0.021329036
6	0x3bb3feb4	0.0054930095
7	0x3d2ce739	0.0422127
8	0x3cf39210	0.029732734
9	0x3d887232	0.06662406
10	0xbd8a8543	-0.06763699
11	0x3c6ff1c8	0.0146450475
12	0xbc283f6e	-0.010269029
13	0xbcd44c89	-0.025915401
14	0xbbff9985	-0.0078002834
15	0x3caf7139	0.021416293
16	0x3d1abb72	0.037776418
17	0x3db96d64	0.09054068
18	0xbcb64ed0	-0.022254378
19	0x3d1d7323	0.03843988
20	0x3c629d3a	0.013831431
21	0xbbce4595	-0.006294916
22	0xbd93ebc3	-0.07222702
23	0xbc55e6e4	-0.013055537
24	0xbc0b5cc9	-0.008506008
25	0xbb5fcfff	-0.0034151075
26	0xbd1aea5d	-0.037821162
27	0x3d5f44ea	0.05450908
28	0x3cef30de	0.029198106
29	0xbb41376b	-0.0029482495
30	0xbc7920df	-0.015205591
31	0xbd237b90	-0.03991276
32	0x3da8e977	0.08247655
33	0xbbc755ba	-0.0060832174
34	0x3b8bcfc6	0.004266712
35	0xbc0121b1	-0.007881568
36	0x3c655aa8	0.013998665
37	0xbdb8f8c8	-0.09031826
38	0xba2cc119	-0.0006590053
39	0xbd1773c0	-0.036975622
40	0x3d11983a	0.035545565
41	0x3d8db896	0.069199726
42	0x3d660458	0.056156486
43	0xbc0ed27d	-0.0087171765
44	0x3cdf71ba	0.027275909
45	0x3d69fc41	0.057125334
46	0xbb7da083	-0.0038700409
47	0xbd0290be	-0.03187632
48	0x3d906fd7	0.07052582
49	0x3ab6e458	0.001395355
50	0x3aa3da8b	0.0012501044
51	0xbd5aed03	-0.05344869
52	0x3c22f4c9	0.009946057
53	0xbd60dab9	-0.05489609
54	0x3ce26447	0.027635707
55	0xbd0bac26	-0.03409972
56	0xbce90538	-0.028444871
57	0x3c2264e4	0.0099117495
58	0xbba1ddc2	-0.0049397657
59	0xbd7bf7db	-0.06151567
60	0xbbd4b1f4	-0.00649094
61	0xbda84c2c	-0.08217654
62	0xbd01fd5e	-0.03173577
63	0x3d5d8fda	0.054092266
64	0xbb9195b6	-0.0044428958
65	0xbc91a788	-0.01778008
66	0xbc12bb51	-0.0089557925
67	0xbd2ea658	-0.042639107
68	0xbd1c081a	-0.038093664
69	0xbd224a8c	-0.039621875
70	0xbd32c74b	-0.04364709
71	0xbc5ab8e8	-0.013349749
72	0xbcda0e5f	-0.02661818
73	0xbbf0e815	-0.007351885
74	0x3da4df7a	0.08050437
75	0xbc9bc716	-0.01901583
76	0x3d785055	0.060623486
77	0x3ddee95d	0.10884354
78	0xbd5d2126	-0.05398669
79	0xbc2bad17	-0.01047828
80	0xbd7f36c2	-0.06230808
81	0x3d33ada9	0.043866787
82	0xbd467ca1	-0.0484587
83	0xbcd0ebd9	-0.025503086
84	0x3d229a9e	0.039698236
85	0xb83f5c00	-4.562363e-05
86	0x3dd74d24	0.1051276
87	0xbd0dcc61	-0.03461874
88	0x3dc94843	0.09828236
89	0x3c214b14	0.00984456
90	0xbd06b92c	-0.032891437
91	0xbd552514	-0.052037314
92	0x3c838e65	0.01605911
93	0xbd4563c1	-0.048190836
94	0x3e123159	0.14276637
95	0x3d094316	0.033511244
96	0xbd543a08	-0.051813155
97	0x3dc11a33	0.09428825
98	0xbc8451e1	-0.016152324
99	0xbc600bba	-0.013674671
100	0xbd004600	-0.031316757
101	0x3d3d2a94	0.046183184
102	0x3a2cd4d1	0.00065929914
103	0xbdca055a	-0.09864302
104	0xbd41da83	-0.04732753
105	0x3c91cadd	0.017796928
106	0x3af82cf1	0.0018934292
107	0x3d811743	0.06303265
108	0x3c1d2c11	0.009593026
109	0x3c8b4990	0.01700285
110	0xbdac3e75	-0.0841035
111	0x3d0713bc	0.032977805
112	0xba2aa646	-0.0006509762
113	0xbcc01451	-0.023447188
114	0xbc5e4e0c	-0.0135684125
115	0x3cba4733	0.022739029
116	0x3db1c70a	0.08680542
117	0x3d2cbd6c	0.042172834
118	0xbcadba29	-0.021206932
119	0x3cc4729a	0.023980428
120	0x3d8b096f	0.06788909
121	0xbc4d0edd	-0.012515751
122	0xbc9c3c06	-0.01907159
123	0xbba09d2f	-0.0049015502
124	0xbc63f589	-0.013913521
125	0xbd04f20d	-0.0324574
126	0xbc99ca60	-0.018773258
127	0x3d1f4ff9	0.038894627
128	0x3d3fea3a	0.046854235
129	0xbb64bfdd	-0.0034904398
130	0xbcdbba94	-0.026822366
131	0xbda16565	-0.078806676
132	0x3db1eed4	0.08688131
133	0xbd3928a3	-0.04520477
134	0xbd09f0d6	-0.033676945
135	0x3da179ef	0.07884585
136	0x3d155a4b	0.036463063
137	0xba2b6d74	-0.0006539442
138	0x3d6f76ab	0.05846278
139	0xbd5e27c5	-0.054237146
140	0x3bc811d1	0.0061056395
141	0xbc33c5a7	-0.010972417
142	0x3d3e8184	0.046510234
143	0x3c20e6a7	0.009820617
144	0xbd6fbe0d	-0.058530856
145	0x3d8ec428	0.069710076
146	0xbc399f74	-0.0113295205
147	0x3d0802a4	0.033205643
148	0x3d0aa3db	0.03384767
149	0xbd06bc87	-0.032894637
150	0xbd568e58	-0.052381843
151	0x3cfda4db	0.030962398
152	0x3c92b5ee	0.017909016
153	0x3c00a721	0.007852347
154	0xbb9a4f2f	-0.0047091465
155	0xbd0ecda8	-0.034864098
156	0x3b8e4aab	0.004342397
157	0x3d51b1d7	0.051194992
158	0x3cad08da	0.021122385
159	0x3ca446da	0.020053316
160	0xbd2361f5	-0.03988834
161	0xbd20cdbd	-0.039258707
162	0xbb7c899a	-0.0038534165
163	0x3ca69a92	0.020337377
164	0x3d03c5eb	0.03217117
165	0x3c6eec37	0.014582685
166	0xbb9caa10	-0.004781015
167	0xbd0a33e0	-0.033740878
168	0xbca3862f	-0.019961445
169	0x3d083a3d	0.033258665
170	0x3c6b1a1d	0.014349488
171	0x3b7fb3c0	0.0039017051
172	0xbd45ad56	-0.04826101
173	0xbd915917	-0.07097071
174	0x3d730c4f	0.05933791
175	0x3d2acb75	0.041697938
176	0x3b7343f1	0.0037119354
177	0x3cf7b80a	0.030239124
178	0xbd0c992e	-0.03432577
179	0x3cf32628	0.02968128
180	0xbc498eef	-0.012302144
181	0x3c2630a0	0.010143429
182	0xbbb9aefd	-0.005666612
183	0xbcaa0331	-0.020753475
184	0x3c8724fb	0.016497126
185	0x3c21c682	0.009873988
186	0x3d53906a	0.051651396
187	0xbcd73933	-0.026272392
188	0x3da5e117	0.08099573
189	0x3c2423ee	0.010018332
190	0xbc972eb7	-0.018454893
191	0x3cacddd6	0.021101873
192	0xbc5d6257	-0.013512216
193	0xb9b0eb69	-0.0003374473
194	0xbbfd34b2	-0.007727229
195	0xbca33f2e	-0.019927587
196	0x3d7f80dc	0.06237875
197	0x3d88570c	0.06657228
198	0xbb5057ef	-0.0031790694
199	0xbd754aa9	-0.059885655
200	0xbe3d5c23	-0.18492179
201	0x3c758bcf	0.014986946
202	0x3cf0ed19	0.029409932
203	0xbd9dbb56	-0.07701747
204	0xbcc7942b	-0.024362644
205	0xbddd6c4e	-0.10811673
206	0xbd4b9d28	-0.049710423
207	0x3b6c4708	0.003605308
208	0x3dd187c8	0.10230976
209	0x3d8a666f	0.06757819
210	0xbe64b3a4	-0.22334152
211	0xbe40c75f	-0.18826054
212	0xbdd09c9b	-0.1018612
213	0xbd8e1d1e	-0.069391474
214	0x3e27139d	0.16316076
215	0x3dc7188c	0.09721479
216	0xbd041223	-0.03224386
217	0x3dae68f5	0.08516113
218	0x3d51272c	0.051062748
219	0x3db499a1	0.08818365
220	0xbd7adf99	-0.061248396
221	0xbd319320	-0.0433532
222	0xbe1e7ae7	-0.15476571
223	0xbe69b79a	-0.22823945
224	0x3e4ad873	0.19809131
225	0xbdf18ed3	-0.1179482
226	0x3c1ed7ee	0.009695036
227	0x3e007a15	0.1254657
228	0xbe641d63	-0.22276835
229	0x3bc31048	0.0059528686
230	0xbe37f947	-0.17966186
231	0xbe04118f	-0.12897323
232	0x3e786fba	0.2426137
233	0x3d192b81	0.037395004
234	0x3e0784d9	0.13234271
235	0xbd1d3118	-0.038376898
236	0x3d3da0a2	0.04629577
237	0xbce9bc97	-0.02853231
238	0xbe6f3c22	-0.23362783
239	0xbdf2807e	-0.11840914
240	0x3e6a8bee	0.22904941
241	0x3e0ac3fe	0.13551328
242	0x3d1d36bb	0.038382273
243	0xbe2389f9	-0.15970601
244	0x3e4d17ad	0.20028563
245	0x3e24f5e4	0.16109425
246	0xbda2f64b	-0.07957133
247	0x3d0e4b33	0.034739684
248	0x3de61197	0.11233824
249	0x3d7bdb3e	0.061488383
250	0xbe450aa5	-0.19242342
251	0xbe3b7c02	-0.18309024
252	0x3dc42bd8	0.09578675
253	0xbe01e0d3	-0.1268342
254	0xbc188ec5	-0.009311383
255	0xbe2ba7ec	-0.16763276

lstm2.weight_hh_l0 f4 [400, 100]
0	0xbb9f2328	-0.004856486
1	0x3ccc76cf	0.024958996
2	0x3c5f4caf	0.013629123
3	0xbcd8476a	-0.02640124
4	0x3c0761be	0.00826305
5	0xbd22d39f	-0.0397526
6	0xbd6f94d5	-0.058491547
7	0x3d38c9fc	0.045114502
8	0xbd30789b	-0.04308377
9	0x3bf8c346	0.007591638
10	0xbd8d689b	-0.069047175
11	0x3c091385	0.00836647
12	0xbdac7e43	-0.0842252
13	0xbdaf4878	-0.08558744
14	0xbd297caa	-0.041378655
15	0xbce71cda	-0.028212
16	0xbc32b58a	-0.01090754
17	0x3d75914f	0.05995303
18	0x3d865fec	0.065612644
19	0xbc8c9b4c	-0.017163895
20	0x3d12f3b5	0.03587695
21	0x3d02108a	0.031754054
22	0xbd10aed7	-0.03532299
23	0xbbb7182c	-0.0055875983
24	0x3ddff72d	0.10935817
25	0x3dbda161	0.09259296
26	0x3d343248	0.043993264
27	0x3c284017	0.010269186
28	0x3d884e89	0.066556044
29	0xbc0bf96d	-0.008543354
30	0xbd48b6ad	-0.04900234
31	0xbd7cfaf9	-0.061762784
32	0x3d758f05	0.059950847
33	0xbc2dfef7	-0.01061987
34	0xbd86ac48	-0.06575829
35	0x3d2a9d6f	0.041654047
36	0xbce061ce	-0.027390387
37	0x3ba93b99	0.0051645753
38	0xbd53276d	-0.05155127
39	0x3d9d8ab8	0.07692474
40	0xbd18b0b7	-0.037277903
41	0x3dcb627d	0.099308945
42	0xbcda694d	-0.02666154
43	0xbd0baa21	-0.034097794
44	0xbc684c92	-0.014178412
45	0x3d4c3bdb	0.04986177
46	0xbbb2710f	-0.0054456065
47	0xbd01575e	-0.03157746
48	0x3d0b9a7e	0.034082882
49	0xbc822fb4	-0.015891887
50	0xbd88cfb2	-0.0668024
51	0xbe136bad	-0.14396544
52	0xbcb6b08d	-0.022300983
53	0xbc32cf01	-0.010913611
54	0xbcfb5955	-0.030682245
55	0xbced0079	-0.02893089
56	0xbd8b9bef	-0.06816851
57	0x3d1a96eb	0.037741583
58	0xbcad629d	-0.021165187
59	0xbd0766f7	-0.03305718
60	0xbd43ec11	-0.047832552
61	0x3d9370f2	0.07199277
62	0x3c8194fd	0.015818113
63	0x3d30e2e6	0.043185137
64	0xbd0360e5	-0.032074828
65	0xbbc8ca19	-0.0061276075
66	0x3ce194fe	0.027536865
67	0xbb967106	-0.00459111
68	0xbd5906a7	-0.05298486
69	0xbc966135	-0.018356899
70	0xbd0add8a	-0.033902682
71	0x3d5b9008	0.053604156
72	0xbd586127	-0.052827027
73	0xbd7c01fc	-0.06152533
74	0xbc47df3d	-0.01219922
75	0xbcac39d9	-0.021023678
76	0x3c209bd0	0.009802774
77	0xbd4f0d91	-0.050550047
78	0x3bc60130	0.006042622
79	0xbd4b2165	-0.049592394
80	0x3dc7da07	0.09758382
81	0xbdb3a996	-0.0877258
82	0xbb0d416d	-0.002155389
83	0xbcc984ca	-0.024599452
84	0xbb8824c3	-0.004154773
85	0x3d923a91	0.07140077
86	0xbd941cf9	-0.072320886
87	0x3ab0e9b5	0.0013497384
88	0x3d05927d	0.032610405
89	0xbd836a74	-0.06416789
90	0x3e1c4d70	0.15263915
91	0xbd0841f4	-0.033266023
92	0x3d4eb9b5	0.050470073
93	0xbcfd3c15	-0.030912438
94	0x3cc9fa9c	0.024655633
95	0x3dafb366	0.085791394
96	0x3c356826	0.011072194
97	0xbcea8145	-0.028626094
98	0x3aab3a73	0.0013063684
99	0xbd3b0ef3	-0.045668554
100	0x3c8aabef	0.016927687
101	0x3c26ad23	0.010173115
102	0x3cafd4c3	0.021463757
103	0xbc1614d9	-0.009160244
104	0x3ce20a81	0.0275929
105	0xbd11faea	-0.03563968
106	0xbd13db0a	-0.036097564
107	0x3d331e09	0.043729816
108	0x3d0cf660	0.03441465
109	0xbca64c28	-0.020299986
110	0xbd3c05ac	-0.045903847
111	0xbbd841af	-0.006599627
112	0x3d81a828	0.063309014
113	0xbd136afd	-0.035990704
114	0xbd1bdc50	-0.038051903
115	0xbdb03ede	-0.08605741
116	0x3c8816b4	0.016612388
117	0x3d4ab286	0.04948666
118	0x3d1c9600	0.03822899
119	0xbd9c727c	-0.07639024
120	0xbd730a14	-0.059335783
121	0xbcb09f87	-0.021560444
122	0x3d131353	0.0359071
123	0xbcf8a99e	-0.030354317
124	0xbbf1ea7e	-0.00738269
125	0x3d179de3	0.037015807
126	0xbd10798c	-0.035272166
127	0xbcba4fe0	-0.022743165
128	0x3d108d8b	0.035291236
129	0xbc0cc726	-0.008592403
130	0x3cf36b46	0.029714238
131	0x3afb4bfe	0.0019172428
132	0x3d2b7636	0.04186078
133	0xbd3a67c3	-0.04550911
134	0x3c5934f7	0.013257257
135	0x3bc4dea7	0.0060079875
136	0xbd6f4ea1	-0.058424596
137	0xbb8007a8	-0.0039071627
138	0x3d4436d8	0.047903866
139	0xbd60fa50	-0.054926217
140	0xbcb14354	-0.02163855
141	0x3d378309	0.0448027
142	0x3d0415f5	0.032247502
143	0x3d3bccf2	0.045849748
144	0xbc9a7725	-0.01885564
145	0x3be5dbc5	0.007014724
146	0xbbe3f0c6	-0.0069561927
147	0x3d23fcf1	0.040036146
148	0x3d47cea3	0.04878105
149	0x3cd5dc03	0.026105886
150	0x3c397eb4	0.011321712
151	0x3ca8fbc9	0.020627873
152	0xbd0d7610	-0.03453642
153	0xbe06e68d	-0.13173886
154	0x3cb7249d	0.022356326
155	0xbd6632f1	-0.056200925
156	0xbca14622	-0.019686762
157	0x3cefc18c	0.029267095
158	0xbd5bcd95	-0.053662855
159	0xbc17f241	-0.009274066
160	0xbcf2670a	-0.029590148
161	0xbc2c38f2	-0.010511624
162	0x3a77f15c	0.00094582676
163	0xbd6654cb	-0.05623321
164	0x3d44c686	0.04804089
165	0x3c720a4a	0.014772961
166	0x3d0fff56	0.035155617
167	0x3d529a9e	0.051416986
168	0xbd8e8e5c	-0.06960747
169	0xbc7f47d2	-0.015581088
170	0x3a94fa47	0.0011366092
171	0x3c801b33	0.01563797
172	0xbb8cf652	-0.0043018246
173	0xbd95357d	-0.07285593
174	0xbc15d08b	-0.009143959
175	0x3ca06341	0.019578578
176	0xbd1ed766	-0.03877964
177	0x3d0b4157	0.03399786
178	0xbc3b0f66	-0.0114172455
179	0x3c5f20ac	0.013618629
180	0x3d4a91eb	0.049455564
181	0xbcbd538c	-0.023111127
182	0x3d11c683	0.035589706
183	0xba8feadd	-0.0010980029
184	0xbc5d5248	-0.013508387
185	0x3c97492e	0.018467512
186	0xbc49596e	-0.012289388
187	0xbd06419b	-0.03277741
188	0x3d560a0f	0.052255686
189	0xbd661e5a	-0.05618129
190	0x3d0d3b30	0.034480274
191	0xbd72b598	-0.059255213
192	0x3c8aa076	0.016922217
193	0xbc815395	-0.015786925
194	0x3d13907a	0.036026455
195	0x3c4ae68d	0.012384069
196	0xbd10d823	-0.035362374
197	0x3d26e797	0.040748205
198	0xbd070640	-0.032964945
199	0xbd04a7d1	-0.032386605
200	0xbe33e449	-0.17567553
201	0xbc2b9c82	-0.010474326
202	0xbdc009f0	-0.093768954
203	0x3d60f980	0.05492544
204	0xbcb91785	-0.022594223
205	0xbc17bcbe	-0.009261308
206	0x3d18caf7	0.037302937
207	0x3d799daa	0.060941376
208	0x3df01cd7	0.11724251
209	0xbdf61739	-0.12016148
210	0x3c332847	0.010934896
211	0xbe29348b	-0.1652395
212	0xb9e92d05	-0.00044474765
213	0xbd1116cf	-0.035422143
214	0x3e195047	0.1497203
215	0x3b712b88	0.0036799628
216	0x3d83b5c9	0.06431157
217	0xbd7965fb	-0.06088827
218	0xbc9b4311	-0.018952878
219	0xbd38b07b	-0.04509018
220	0xbe078e4d	-0.13237877
221	0x3babab0e	0.005238897
222	0x3dd40c8d	0.10353956
223	0xbca2af4e	-0.019858982
224	0xbd40fe9e	-0.047117822
225	0xbe408693	-0.18801336
226	0xbe2e5cc2	-0.17027572
227	0x3dfbda74	0.12297526
228	0xbd87779d	-0.06614611
229	0xbbb188c4	-0.005417915
230	0x3d8b8cb6	0.06813948
231	0x3dfc9724	0.12333515
232	0xbd7fff49	-0.06249932
233	0xbe3b1c80	-0.1827259
234	0xbd86e37e	-0.065863594
235	0x3def50df	0.11685347
236	0xbdb4c1af	-0.08826005
237	0xbd8d0929	-0.06886513
238	0x3e172fba	0.147643
239	0x3c5f8125	0.01364163
240	0x3cb1155a	0.021616627
241	0xbc1b0d74	-0.009463657
242	0x3d6fd297	0.058550444
243	0x3dc18a4e	0.09450208
244	0xbd06333a	-0.032763697
245	0xbd480f88	-0.048842937
246	0x3d9b022c	0.075687736
247	0x3c6a6677	0.014306656
248	0x3da6b00b	0.08139046
249	0xbde91afc	-0.113821
250	0x3e0c4fab	0.13702266
251	0x3de32a76	0.11092083
252	0x3dbb6647	0.09150367
253	0xbd98ff17	-0.074705295
254	0xbda7c453	-0.08191743
255	0xbd488ded	-0.048963476

lstm2.bias_ih_l0 f4 [400]
0	0xbe4a6df8	-0.19768512
1	0xbe840b38	-0.2578981
2	0xbd7abac4	-0.06121327
3	0xbe35d1cb	-0.17755811
4	0xbe44e3bd	-0.192275
5	0xbe92c506	-0.28665942
6	0xbe7a08d3	-0.24417429
7	0xbe9ad964	-0.3024398
8	0xbe6348b3	-0.22195701
9	0xbe87bb96	-0.26510304
10	0xbe0fb343	-0.14033227
11	0xbe275adb	-0.16343252
12	0x3dee0897	0.11622732
13	0x3c02ea34	0.007990409
14	0xbe0795ee	-0.13240787
15	0xbd9493a9	-0.072547264
16	0xbe3416ff	-0.17586897
17	0xbe82cfc0	-0.25549126
18	0xbe788590	-0.242697
19	0xbe0fffba	-0.14062396
20	0xbeb55f67	-0.3542435
21	0xbe6f2e36	-0.23357472
22	0xbe112af7	-0.14176546
23	0xbe3b2fe1	-0.18279983
24	0xbe37649d	-0.17909475
25	0xbc7cdb17	-0.015433094
26	0xbd9b4036	-0.07580607
27	0xbe2e647e	-0.17030522
28	0xbeb1bf94	-0.34716475
29	0xbedbabe3	-0.42904577
30	0xbe7f2e8d	-0.24920101
31	0xbe408df0	-0.18804145
32	0xbe54e296	-0.2078956
33	0xbe5fb959	-0.21848048
34	0xbe7d99e6	-0.24765739
35	0xbe190018	-0.14941442
36	0xbe1b6a99	-0.15177383
37	0xbe5c44ae	-0.21510574
38	0xbe9738b0	-0.29535437
39	0xbe391a2a	-0.18076387
40	0xbe649505	-0.22322471
41	0xbe48ddee	-0.1961591
42	0xbe9f4da0	-0.3111391
43	0xbdf98cbc	-0.12185046
44	0x3c7efb58	0.015562855
45	0xbe1c4cb4	-0.15263635
46	0xbe0f85fe	-0.14015958
47	0xbe6c43b5	-0.23072703
48	0xbe87e525	-0.2654201
49	0xbe6775fa	-0.22603598
50	0xbe8ed44e	-0.2789635
51	0xbe4a44e1	-0.19752838
52	0xbe0f5219	-0.13996162
53	0xbe61806a	-0.22021642
54	0xbe756f1b	-0.23968165
55	0xbe5d0d46	-0.21587095
56	0xbd64cfd6	-0.05586227
57	0xbe965dcb	-0.29368433
58	0xbe8e1b12	-0.27755028
59	0xbe4831f1	-0.19550301
60	0xbe7fd37a	-0.24983016
61	0x3d2be407	0.04196551
62	0xbe2cbe3c	-0.16869444
63	0xbe0566b0	-0.13027453
64	0xbdcb35c8	-0.09922367
65	0xbded5b1b	-0.115896426
66	0xbdd59a26	-0.10429792
67	0xbe630ddd	-0.22173257
68	0xbe2732f0	-0.16328025
69	0xbe32b0e4	-0.17450291
70	0x3a800531	0.0009767172
71	0xbe8d78d5	-0.2763125
72	0xbdfc7a91	-0.12328065
73	0xbdf9e89f	-0.12202572
74	0xbe8b249f	-0.27176377
75	0xbdd04e3d	-0.10171173
76	0xbdec3499	-0.1153347
77	0xbe2ecd5c	-0.17070526
78	0xbd8a5ea5	-0.06756333
79	0x3d48782f	0.04894274
80	0xbe84d2cc	-0.25942075
81	0x3daa8539	0.083261915
82	0xbdc9ac1b	-0.0984728
83	0xbe7fbba4	-0.24973923
84	0xbe5c3344	-0.21503931
85	0xbe059a19	-0.13047065
86	0xbd9bd289	-0.07608516
87	0xbe4d8b4e	-0.20072672
88	0xbe59181c	-0.21200603
89	0xbd5083e3	-0.050907027
90	0xbd8185d8	-0.06324357
91	0xbe00ec6f	-0.12590192
92	0xbe8e1629	-0.27751282
93	0xbe7c4382	-0.24635127
94	0xbd1a5894	-0.03768213
95	0xbe8a20f1	-0.26978257
96	0xbdda9f06	-0.106748626
97	0xbe6a58a9	-0.22885384
98	0xbe66862d	-0.22512121
99	0xbea32ae9	-0.31868675
100	0xbe61831a	-0.22022668
101	0xbe6f3fc5	-0.2336417
102	0xbd91424b	-0.070927225
103	0xbdfa1b7a	-0.12212272
104	0xbe851b15	-0.25997224
105	0xbe8fb9f8	-0.2807157
106	0xbe946d76	-0.28989762
107	0xbe89aa6f	-0.26887843
108	0xbe76cf26	-0.24102458
109	0xbe5bd3ee	-0.21467564
110	0xbe3d8560	-0.1850791
111	0xbdbff323	-0.093725465
112	0x3e86f34e	0.26357502
113	0x3dca2577	0.09870427
114	0xbe1bcb6a	-0.15214315
115	0xbe6c394d	-0.23068734
116	0xbe98de82	-0.2985726
117	0xbe4a657f	-0.1976528
118	0xbdfb806b	-0.12280353
119	0x3e065920	0.13119936
120	0xbe888022	-0.26660258
121	0xbea3b462	-0.3197356
122	0xbe8a5a85	-0.27022186
123	0xbd9bd210	-0.076084256
124	0xbeb4a760	-0.35283947
125	0x3d8db21a	0.06918736
126	0xbeb90ed0	-0.36144114
127	0xbe6769c0	-0.22598934
128	0xbdee89d0	-0.116473794
129	0xbe9a1ea4	-0.30101502
130	0xbea76772	-0.3269611
131	0xbec1e913	-0.37873134
132	0xbe73b72c	-0.23800343
133	0xbe45a48f	-0.19301055
134	0xbe73aaa4	-0.23795563
135	0xbe8dcad5	-0.2769381
136	0xbe925356	-0.28579205
137	0xbddec625	-0.10877637
138	0xbea20ab5	-0.31648794
139	0x3c5bd3d8	0.013417207
140	0xbe46358b	-0.19356363
141	0xbe936b80	-0.28792953
142	0xbe260264	-0.1621185
143	0xbe5ed93e	-0.21762559
144	0x3d9671f0	0.073459506
145	0xbe1b9a94	-0.15195686
146	0xbed8bd62	-0.42331988
147	0xbed0692a	-0.40705234
148	0xbe0b98f4	-0.13632566
149	0xbe79dc0d	-0.24400349
150	0xbdb4ed3a	-0.0883431
151	0xbe1f5bae	-0.15562317
152	0xbeb58112	-0.35450035
153	0xbe2d37e5	-0.16915853
154	0xbe41a116	-0.18909106
155	0xbe3bfc83	-0.18358044
156	0xbe272c8d	-0.16325589
157	0xbe96d7fa	-0.29461652
158	0xbd1f6d79	-0.03892276
159	0xbe8ab476	-0.27090806
160	0xbe922340	-0.2854252
161	0x3e1139ed	0.14182253
162	0xbbc4485a	-0.0059900703
163	0x3c61d4e0	0.0137836635
164	0xbe4a4bcf	-0.19755481
165	0x3d96b2cd	0.07358322
166	0xbea08ef6	-0.3135907
167	0xbd016c5e	-0.031597488
168	0xbde7beb2	-0.11315669
169	0xbe65fd9c	-0.22460026
170	0x3e19e1a8	0.15027487
171	0xbeb39ba1	-0.35079673
172	0xbe1cbc0a	-0.15306106
173	0xbe01a39d	-0.1266007
174	0xbe5ee3ae	-0.2176654
175	0xbe8e907f	-0.27844617
176	0xbe2af460	-0.16694784
177	0x3bf07af1	0.0073388745
178	0x3d909eee	0.070615634
179	0x3e35671d	0.17715116
180	0xbe706d68	-0.23479235
181	0x3e7567ca	0.23965374
182	0xbe70ec43	-0.23527627
183	0xbe09c028	-0.13452208
184	0x3d39a023	0.045318734
185	0xbbb7f79d	-0.0056142346
186	0xbd78509e	-0.060623758
187	0xbd2761de	-0.040864818
188	0xbdf09194	-0.11746517
189	0x3dc2eb31	0.095175155
190	0xbe119058	-0.14215219
191	0xbe950a25	-0.29109302
192	0xbd8d2901	-0.068925865
193	0xbe8d3b52	-0.2758432
194	0x3e35be93	0.1774848
195	0xbde8759d	-0.11350558
196	0xbb4f93a7	-0.00316737
197	0xbde46bf8	-0.11153406
198	0xbdc02030	-0.09381139
199	0xbe3457c9	-0.17611612
200	0xbdb4f2d6	-0.0883538
201	0x3cf08f1c	0.029365115
202	0x3e388074	0.18017751
203	0xbdb2d825	-0.087326325
204	0x3dee337f	0.11630916
205	0xbd50da1b	-0.05098925
206	0x3d313dab	0.0432717
207	0xbded9df0	-0.1160239
208	0xbbd4af84	-0.0064906497
209	0x3df835b7	0.1211962
210	0x3cb1b2e8	0.021691754
211	0x3e218ed3	0.1577714
212	0xbdfe4a2a	-0.124164894
213	0x3e0e021c	0.13867992
214	0x3d805863	0.062668584
215	0xbdc255a2	-0.094889894
216	0xbdc915ee	-0.09818636
217	0x3d9bd5b5	0.07609121
218	0xbe04ac97	-0.12956463
219	0x3dcc92dc	0.09988949
220	0x3d97fd6c	0.07421383
221	0xbd9b4e5c	-0.07583305
222	0xbcf1e965	-0.029530236
223	0xbd5841cd	-0.052797128
224	0x3c33a1ba	0.010963852
225	0x3d220841	0.039558653
226	0xbc95cf1e	-0.018287238
227	0xbd89ca29	-0.06728012
228	0x3d8af3c3	0.06784775
229	0x3ce68436	0.028139215
230	0xbc482f5e	-0.0122183245
231	0xbd6e30d9	-0.058152054
232	0x3d08fb46	0.033442758
233	0xbab1f308	-0.0013576457
234	0x3d514393	0.051089834
235	0xbd2e0d32	-0.042493053
236	0xbdbc2873	-0.091874026
237	0x3d95bef8	0.07311815
238	0xbc5d451a	-0.013505245
239	0xbe11a15b	-0.14221708
240	0x3a6ab29c	0.00089530065
241	0xbc99021b	-0.018677762
242	0xbe29f5e3	-0.16597705
243	0xbd82f1b1	-0.06393755
244	0xbd25e2ee	-0.04049962
245	0xbdfc87a1	-0.12330557
246	0x3de71cee	0.11284815
247	0xbd4d4d0a	-0.0501223
248	0xbd11024d	-0.035402585
249	0x3dd7bac0	0.105336666
250	0x3e343bbc	0.17600912
251	0xbdbbe874	-0.09175196
252	0x3bb25ff9	0.0054435697
253	0xbd3f2844	-0.04666926
254	0xbd26d97d	-0.040734757
255	0x3d82c1fa	0.06384654
